activation/cifar_net.pth (torch, 251422 bytes, 10 tensors)

conv1.weight f4 [6, 3, 5, 5]
-0.12894857 -0.1518354 -0.07397192 -0.11470242 -0.13959482 -0.019104535 -0.023394797 0.044649035
0.010375305 -0.005712936 0.035116255 0.04822878 0.11977412 0.14657913 0.15382028 0.082538776
0.05537532 0.07020995 0.19290246 0.20709032 0.19476275 0.07012246 0.23748225 0.09723542
0.2051758 0.05824961 0.03219053 0.040921316 0.107963055 0.070881575 -0.08817684 -0.07766331
-0.03282878 0.077439934 0.013926106 -0.10814113 -0.011081562 0.03538275 -0.03685929 -0.019427473
-0.20355277 -0.17876463 -0.17728408 -0.17889823 -0.19515453 -0.19366893 -0.21613827 -0.048163127
-0.008650413 -0.015567037 0.14568074 0.1284036 0.25591242 0.06429015 0.030382397 0.06504302
0.052252933 0.09041171 -0.025558995 0.06938889 0.041126344 0.008550904 0.06108574 -0.052646365
-0.12668711 -0.061444443 -0.099382184 -0.018049585 0.051925406 -0.15761939 -0.0068405243 0.105187446
0.06585279 -0.01664006 0.0035198287 0.20897289 0.07066707 0.047454897 0.0668761 -0.00012656348
-0.08216491 -0.07147178 0.077717766 0.0755873 -0.0023087496 0.102405444 0.087070085 0.11884874
0.028723426 0.11039579 0.03478708 -0.08221989 -0.1291979 0.07547295 0.10741607 -0.14435159
-0.23368171 -0.25849584 -0.13853888 -0.07348732 -0.03206265 0.12332786 0.077089526 -0.054869916
-0.075848915 -0.1522734 -0.1367285 -0.123886876 -0.19777961 -0.16390635 -0.04690907 -0.04513315
-0.10068314 -0.12805136 -0.011327996 -0.15853833 -0.026437318 -0.07262515 -0.14886639 0.006232976
-0.1649072 -0.20540777 -0.14132103 -0.17296585 -0.056729075 0.1110782 0.15250336 0.10456545
0.075332716 -0.033145476 -0.003671066 0.07173501 -0.022914601 0.06713205 0.075625315 0.167286
0.12751985 -0.010380916 0.06979799 0.033480946 0.14592339 0.050500188 0.09178934 0.08600315
-0.011087916 0.068952374 -0.039494146 0.056650802 0.031117482 0.15035173 -0.058000207 0.044026636
-0.10455727 0.04104609 0.06895715 -0.17694102 -0.32166415 -0.31398845 -0.3066923 -0.1866804
-0.13971013 -0.091258846 -0.1371731 -0.21686238 -0.07483642 0.11284723 0.10879566 0.14282751
0.17288251 0.13039257 0.087125175 0.22650142 0.14630519 0.2294143 -0.041999187 0.06798298
0.11923642 0.16379075 0.101572625 0.068887405 -0.08741073 -0.14448956 -0.2446388 -0.23473528
-0.08719258 0.022968125 0.059080593 -0.09853389 -0.018131467 -0.038391124 -0.045341108 0.073330574
0.14204091 0.17574662 0.11661361 0.05314327 -0.02462199 0.079003125 0.07472556 0.10164425
0.18578161 0.045342226 -0.003934357 -0.018081209 0.046919275 -0.024379326 -0.15262225 -0.18946734
-0.06647923 -0.10833889 0.02654122 -0.16292447 0.018617688 0.049019072 0.04486782 -0.0627594
0.07712509 0.25216666 0.120621935 0.026611198 -0.020005692 -0.0037871732 0.092250854 -0.083443224
-0.01736851 0.12226145 -0.012191792 -0.044593535 -0.018853683 0.17979485 0.16721913 0.08218938
-0.10332275 0.0190714 0.106776536 0.079675525 0.13527896 -0.1867537 -0.25684685 0.26412454
0.098357484 0.14574723 -0.24214935 -0.22730847 0.12785694 0.052101526 0.05233274 -0.20006476
-0.2260695 0.04611194 -0.110263534 0.020535564 -0.022839898 -0.12740801 -0.040871434 0.0026285313
00000000: 180b 04be bd7a 1bbe 977e 97bd 1ae9 eabd
00000010: f2f1 0ebe 1d81 9cbc 72a6 bfbc e8e1 363d
00000020: 2ffd 293c 9533 bbbb 10d6 0f3d 8b8b 453d
00000030: 224c f53d d718 163e 1083 1d3e 170a a93d
00000040: 3bd1 623d 3cca 8f3d 3988 453e 7c0f 543e
00000050: e36f 473e 5d9c 8f3d 8c2e 733e 5d23 c73d
00000060: 9b19 523e 2597 6e3d 38da 033d 1c9d 273d
00000070: bc1b dd3d 5c2a 913d 0f96 b4bd f10d 9fbd
00000080: 7977 06bd d498 9e3d 522a 643c 1979 ddbd
00000090: 718f 35bc 81ed 103d c4f9 16bd 5d26 9fbc
000000a0: 2370 50be 130e 37be f589 35be 1931 37be
000000b0: 97d6 47be 2651 46be 5a53 5dbe b346 45bd
000000c0: 76ba 0dbc e30c 7fbc 552d 153e 3c7c 033e
000000d0: f406 833e 8eaa 833d 81e4 f83c 4635 853d
000000e0: 2c07 563d c629 b93d 1961 d1bc c31b 8e3d
000000f0: 1974 283d 1719 0c3c 0a35 7a3d b7a3 57bd
00000100: 44ba 01be 2bad 7bbd e388 cbbd b9dc 93bc
00000110: bcaf 543d fa66 21be 7a26 e0bb 846c d73d
00000120: d4dd 863d bc50 88bc edac 663b fdfc 553e
00000130: e6b9 903d 1160 423d 56f6 883d 20b6 04b9
00000140: 1446 a8bd cc5f 92bd 7e2a 9f3d 84cd 9a3d
00000150: 644e 17bb f2b9 d13d cd51 b23d f866 f33d
00000160: 644d eb3c 3017 e23d e67c 0e3d e762 a8bd
00000170: 744c 04be 9091 9a3d f5fc db3d e7d0 13be
00000180: 424a 6fbe 9159 84be 23dd 0dbe 8580 96bd
00000190: 2054 03bd 5193 fc3d 1de1 9d3d 47bf 60bd
000001a0: ad56 9bbd 8fed 1bbe 8e02 0cbe 67b8 fdbd
000001b0: bd86 4abe 11d7 27be ba23 40bd 8add 38bd
000001c0: f632 cebd e51f 03be 0f99 39bc df57 22be
000001d0: 1393 d8bc 7fbc 94bd 6e70 18be fe3d cc3b
000001e0: 6fdd 28be 6a56 52be 76b6 10be f61d 31be
000001f0: bf5c 68bd f87c e33d d729 1c3e 6926 d63d
00000200: 0a48 9a3d 8dc3 07bd 4496 70bb cee9 923d
00000210: 67b7 bbbc 877c 893d 72e1 9a3d 054d 2b3e
00000220: 9094 023e b814 2abc 40f2 8e3d 5123 093d
00000230: f16c 153e 49d9 4e3d 0dfc bb3d 6b22 b03d
00000240: 17aa 35bc e736 8d3d 9dc4 21bd ac0a 683d
00000250: 17ea fe3c cef5 193e a091 6dbd 4655 343d
00000260: 1f22 d6bd f21f 283d 6839 8d3d 0730 35be
00000270: 2ab1 a4be 18c3 a0be c606 9dbe 2629 3fbe
00000280: 2c10 0fbe ebe5 babd 1b77 0cbe 2c11 5ebe
00000290: d643 99bd 731c e73d 42d0 de3d 6041 123e
000002a0: 1d08 313e a185 053e af6e b23d fdef 673e
000002b0: 07d1 153e 95eb 6a3e 5707 2cbd a93a 8b3d
000002c0: 3932 f43d c3b8 273e 4f05 d03d d714 8d3d
000002d0: 6604 b3bd 12f5 13be 9882 7abe 725e 70be
000002e0: 0692 b2bd a627 bc3c 7efe 713d 23cc c9bd
000002f0: 7188 94bc 0340 1dbd 99b7 39bd 572e 963d
00000300: 2c73 113e ecf6 333e 1ed3 ee3d c2ac 593d
00000310: 0eb4 c9bc 64cc a13d b709 993d dc2a d03d
00000320: 893d 3e3e c5b8 393d c7eb 80bb 0b1f 94bc
00000330: 6d2e 403d 27b7 c7bc 0249 1cbe ba03 42be
00000340: 4326 88bd c8e0 ddbd f96c d93c acd5 26be
00000350: 1f84 983c 39c8 483d 52c7 373d 0088 80bd
00000360: c2f3 9d3d fd1b 813e a208 f73d baff d93c
00000370: fae2 a3bc 3932 78bb 04ee bc3d 48e4 aabd
00000380: 6848 8ebc 3664 fa3d 15c0 47bc b6a7 36bd
00000390: 0a73 9abc 241c 383e 7e3b 2b3e e852 a83d
000003a0: e19a d3bd a03b 9c3c a8ad da3d ec2c a33d
000003b0: 9186 0a3e 5d3c 3fbe 6e81 83be 553b 873e
000003c0: a66f c93d c33e 153e 00f6 77be 8dc3 68be
000003d0: eeec 023e 6968 553d db5a 563d c7dd 4cbe
000003e0: c37e 67be e0df 3c3d d9d1 e1bd 333a a83c
000003f0: bd1a bbbc 3f77 02be ce68 27bd 7043 2c3b

conv1.bias f4 [6]
-0.20822534 -0.21271038 -0.16202281 -0.3729231 -0.4023628 -0.106497325
00000000: 0639 55be c0d0 59be 4fe9 25be c7ef bebe
00000010: 7f02 cebe 451b dabd

conv2.weight f4 [16, 6, 5, 5]
0.0043251524 0.019954648 0.04780462 0.045698114 0.064006604 -0.016315432 0.030429933 -0.0040585794
-0.043286256 0.017466968 0.019905688 -0.012436715 -0.059335127 0.041478265 0.046461135 -0.021250416
0.007827676 0.02239616 0.08213848 -0.048822053 0.041687384 0.09051444 -0.030721197 -0.081893854
-0.098757595 0.07992062 0.07487953 0.014488154 -0.121789254 -0.053315382 0.06693085 -0.07777322
-0.06911503 -0.0556549 0.014293312 -0.07704175 -0.13059102 -0.050003123 0.045080766 -0.0245209
-0.1254573 0.006965598 0.07349482 0.04413766 0.05725233 -0.06659792 -0.006601983 0.07479512
-0.042789437 0.06730965 -0.032556485 0.032331925 0.13624078 0.13547762 0.032014906 0.08915294
0.07104079 0.07132463 -0.10060358 -0.10679624 0.058371432 0.03411825 -0.078305975 -0.04520829
0.030943066 0.05697315 -0.13682128 0.0008181534 0.09711701 0.0010210727 -0.10532648 -0.043380905
-0.06548798 -0.040772844 0.0551579 0.026059 0.014108947 -0.0752265 -0.2160765 -0.081434034
0.066196874 -0.04949453 -0.12754756 -0.002308246 -0.030160444 -0.06731924 -0.03853006 -0.03078725
0.03407477 -0.02733018 -0.048641503 -0.09234449 0.081443034 -0.0009708487 0.06992082 -0.077816606
0.09693939 0.04977132 0.050379857 0.01920668 0.18704106 0.09127071 -0.002773317 -0.086603984
0.03916399 0.08329652 -0.015987368 0.07369661 0.10093308 -0.05898971 0.020947553 0.03820654
0.0698069 0.046309706 -0.05701203 0.05091786 0.16364996 -0.024048366 -0.0884124 -0.050068755
-0.0078085093 0.055294316 -0.05373139 -0.10238156 -0.06945793 0.09687919 0.004947802 0.0062707807
-0.043802075 -0.036079835 0.06040011 -0.03850457 -0.02813521 -0.027372355 0.05497997 0.032305483
0.09349534 0.071061626 -0.036949664 0.03992393 0.011650035 0.010214 -0.095313564 0.06354987
0.096446246 -0.019880278 0.031431288 0.019170145 -0.03435524 -0.03996248 0.1576518 0.04607533
0.02386455 0.11093177 -0.04368353 0.046810318 -0.017354093 0.00016136208 -0.0068158223 0.058446806
0.027848504 -0.005304752 -0.011629366 -0.09590244 0.0333551 -0.058827076 -0.033334162 -0.0033181363
0.011206397 0.027929565 0.036857285 -0.03562541 0.022366142 -0.005475121 0.09639736 -0.029366206
0.018092668 0.014481331 -0.023582503 0.0716528 -0.03160991 0.04060933 0.07759688 -0.041712087
-0.0055164834 0.005957043 0.079564184 0.021626327 0.073586635 0.11389297 -0.050179616 -0.022151537
0.034720663 -0.058983907 0.016645236 -0.1878491 -0.14441915 -0.07686219 -0.041177154 -0.08723492
0.035005435 -0.012090573 0.025421478 -0.008030017 -0.059262913 -0.12385446 -0.05517603 -0.073358566
-0.10662134 -0.021034908 -0.03243069 -0.030168086 -0.12757866 0.009688771 -0.008634588 0.02097986
0.06926452 0.031141955 0.0709816 0.1438674 0.13249885 0.04691781 0.12614505 0.16074894
0.11086767 0.12081217 -0.09852506 0.037680477 -0.11347517 0.059230305 0.15996926 0.064935505
0.18749635 -0.061685476 0.2330468 0.06260345 0.04065401 0.104692 0.053593304 0.17660822
0.06619481 -0.10524109 0.042938743 -0.019832503 0.10245821 -0.07894199 -0.08469099 -0.13324411
-0.15828939 -0.15854472 0.051707294 -0.010936649 -0.058980864 0.04225607 -0.07644047 0.015674869
00000000: 02ba 8d3b ee77 a33c c7ce 433d f22d 3b3d
00000010: e515 833d f1a7 85bc 3248 f93c d5fd 84bb
00000020: ee4c 31bd e316 8f3c 4111 a33c 5dc3 4bbc
00000030: 6409 73bd 1de5 293d 084e 3e3d 5a15 aebc
00000040: a73f 003c 2778 b73c 3838 a83d a2f9 47bd
00000050: 64c0 2a3d a25f b93d 05ab fbbc f7b7 a7bd
00000060: 6c41 cabd 6cad a33d 705a 993d b95f 6d3c
00000070: a56c f9bd 3b61 5abd 0b13 893d 9147 9fbd
00000080: 2e8c 8dbd 64f6 63bd 7f2e 6a3c 11c8 9dbd
00000090: a7b9 05be 13d0 4cbd 9ca6 383d 0ee0 c8bc
000000a0: e177 00be ac3f e43b 7484 963d b1c9 343d
000000b0: 6b81 6a3d 7e64 88bd 7355 d8bb 2f2e 993d
000000c0: fa43 2fbd a4d9 893d f359 05bd 7b6e 043d
000000d0: b482 0b3e a5ba 0a3e 1022 033d d195 b63d
000000e0: d57d 913d a612 923d 4009 cebd fdb7 dabd
000000f0: e216 6f3d 94bf 0b3d e25e a0bd 542c 39bd
00000100: 507c fd3c ae5c 693d e11a 0cbe 5879 563a
00000110: 48e5 c63d 84d5 853a 69b5 d7bd 2db0 31bd
00000120: 901e 86bd 6d01 27bd 40ed 613d af79 d53c
00000130: 3629 673c 5a10 9abd 2843 5dbe e3c6 a6bd
00000140: 3a92 873d c7ba 4abd d49b 02be f145 17bb
00000150: 0913 f7bc abde 89bd b2d1 1dbd 8b35 fcbc
00000160: fc91 0b3d 8be3 dfbc 503c 47bd 1c1f bdbd
00000170: 9bcb a63d 8e80 7eba a632 8f3d 505e 9fbd
00000180: 2988 c63d 03dd 4b3d 1c5b 4e3d 5457 9d3c
00000190: b187 3f3e 23ec ba3d 8ac0 35bb 6e5d b1bd
000001a0: 6c6a 203d 5e97 aa3d f1f7 82bc 40ee 963d
000001b0: 01b6 ce3d 329f 71bd 349a ab3c 767e 1c3d
000001c0: ecf6 8e3d 3faf 3d3d 7285 69bd 3f8f 503d
000001d0: db93 273e 1401 c5bc 8f11 b5bd e514 4dbd
000001e0: 86de ffbb 4b7c 623d 7215 5cbd 6cad d1bd
000001f0: f63f 8ebd 9968 c63d 2c21 a23b 1f7b cd3b
00000200: ce69 33bd 73c8 13bd 1b66 773d f8b6 1dbd
00000210: d07b e6bc fd3b e0bc ad32 613d c152 043d
00000220: 7c7a bf3d c288 913d 8858 17bd 4687 233d
00000230: cadf 3e3c 9f58 273c c233 c3bd 6f26 823d
00000240: 9c85 c53d f7db a2bc 18be 003d b50a 9d3c
00000250: 15b8 0cbd b3af 23bd 796f 213e 7cb9 3c3d
00000260: 977f c33c 3230 e33d 80ed 32bd 2dbc 3f3d
00000270: 2c2a 8ebc 4e33 2939 4357 dfbb eb65 6f3d
00000280: 8c22 e43c 7cd3 adbb 1989 3ebc 8068 c4bd
00000290: 5b9f 083d a9f4 70bd 6789 08bd 1775 59bb
000002a0: 099b 373c 8bcc e43c aaf7 163d f3eb 11bd
000002b0: 3339 b73c a568 b3bb fb6b c53d 6691 f0bc
000002c0: 1337 943c 1b43 6d3c 1830 c1bc b4be 923d
000002d0: 6579 01bd f855 263d 1deb 9e3d 4bda 2abd
000002e0: 9ec3 b4bb 4c33 c33b 8cf2 a23d b229 b13c
000002f0: 97b4 963d b840 e93d 2489 4dbd 2477 b5bc
00000300: 4137 0e3d 1c99 71bd 975b 883c 845b 40be
00000310: 9de2 13be ed69 9dbd 60a9 28bd 39a8 b2bd
00000320: dc61 0f3d 8a17 46bc b440 d03c 5590 03bc
00000330: abbd 72bd 68a7 fdbd 4300 62bd 043d 96bd
00000340: 4a5c dabd 6651 acbc 0bd6 04bd 1023 f7bc
00000350: fba3 02be a7bd 1e3c 1678 0dbc f5dd ab3c
00000360: 8fda 8d3d 6a1d ff3c cd5e 913d fa51 133e
00000370: c7ad 073e e42c 403d 2b2c 013e 5f9b 243e
00000380: 970e e33d 5f6c f73d 82c7 c9bd d856 1a3d
00000390: ac65 e8bd 7a9b 723d fbce 233e e8fc 843d
000003a0: 0bff 3f3e e9a9 7cbd d2a3 6e3e 3d36 803d
000003b0: d284 263d c268 d63d a784 5b3d c9d8 343e
000003c0: 2591 873d a488 d7bd 89e0 2f3d c677 a2bc
000003d0: 9cd5 d13d 57ac a1bd 7872 adbd 2571 08be
000003e0: 9d16 22be 8c59 22be 07cb 533d a12f 33bc
000003f0: eb95 71bd b314 2d3d d28c 9cbd 9568 803c

conv2.bias f4 [16]
-0.0069729504 -0.28209525 -0.024589619 -0.21201043 -0.10930053 -0.04461783 -0.33238316 -0.13930716
-0.0080769295 -0.11581941 -0.014942308 -0.14477462 0.04129764 -0.19698405 -0.21832915 -0.11463949
00000000: 597d e4bb ca6e 90be 2b70 c9bc 4319 59be
00000010: f5d8 dfbd 30c1 36bd 202e aabe 89a6 0ebe
00000020: 1955 04bc ba32 edbd 95d0 74bc cc3f 14be
00000030: b727 293d 30b6 49be ad91 5fbe 1cc8 eabd

fc1.weight f4 [120, 400]
0.044696406 0.061892737 -0.021299113 0.0031268261 -0.032281443 0.02226471 0.04589272 0.030973863
0.0061205407 -0.024196142 -0.024880188 0.0111857895 -0.015264762 -0.0016631857 -0.017070562 -0.0007976546
0.012395928 0.056875587 -0.022869112 0.008796672 -0.04379207 0.0032354547 -0.017208412 0.011516588
-0.033196565 0.026448987 0.01231136 0.028301207 0.0068017007 0.04137871 -0.034066442 0.0070090755
0.028446814 0.032992236 -0.018422782 0.029865662 -0.04360445 0.010275836 -0.042671084 -0.0014718712
0.015662573 -0.044141505 0.018815903 -0.014525788 0.04381785 -0.011543019 -0.028335726 0.033995643
0.051998276 0.009242256 -0.009058828 -0.044145986 -0.055646002 -0.0006367606 -0.025004542 -0.0135704875
0.036495622 0.0009780559 -0.036297515 0.04847023 0.02788249 0.047029063 -0.013880634 0.031421725
0.0018849312 -0.017475829 -0.01609295 -0.025063673 0.036868736 0.051538263 -0.006389028 0.04569431
0.053938195 0.059903834 0.042057537 -0.030714074 0.03724796 0.018776987 -0.04602544 0.041639708
0.051177636 0.014970835 0.008487875 -0.0021216364 0.015707804 -0.020568034 -0.03154237 0.015793504
-0.01908681 0.03040582 0.020730192 0.046807315 0.03593621 0.017276103 0.014262073 -0.011279161
-0.029544275 0.026884262 -0.0026877793 0.02403959 0.021951746 0.0067098513 -0.051660422 -0.018557912
-0.0022616538 -0.0053026415 0.00069174793 0.021094203 -0.0050959727 0.015130334 -0.0050065224 -0.0035947037
-0.042840727 -0.04804347 0.00820902 0.016889682 0.030618988 -0.019602751 0.03598729 -0.036582768
-0.021955313 0.010888716 0.009445793 -0.039508663 -0.048586812 -0.015931923 -0.012403309 -0.016048176
-0.018765075 -0.03863801 0.0030428167 -0.021238761 -0.0041300594 0.032120325 -0.0032293154 -0.015158501
-0.02000596 0.023508178 0.059973937 0.061636835 0.0384335 -0.0009934598 0.020914854 -0.0011463115
0.0014860419 -0.0013368394 0.00871334 0.043364264 0.02627936 -0.036327068 0.012741337 -0.031761136
-0.005680825 0.038201313 -0.06864648 0.03499492 0.05097093 0.01337318 -0.008397936 0.04378212
0.050485518 -0.0048679397 0.00084449747 0.029200688 -0.019854562 -0.012834233 -0.032595746 0.01231995
-0.031801447 0.047751818 -0.015583696 0.042959314 -0.0026042343 -0.018742567 0.012493537 0.020270323
-0.027834617 -0.039386857 -0.03542476 0.0034762928 0.03600595 -0.037386533 0.04280275 -0.023913171
0.010545549 0.034554835 -0.004129064 0.01760932 0.032935712 0.0048847175 0.053250942 -0.01761755
-0.0008769905 -0.033780098 0.023731383 -0.047635965 -0.03090451 -0.012700175 0.0048368173 0.001151027
-0.03151098 -0.04666997 0.014274767 0.021951694 -0.032867443 -0.0061931782 -0.013182155 0.029712936
0.04301247 -0.030374374 -0.03718721 -0.024206256 0.04098697 -0.03998206 -0.042464383 0.028700449
-0.011634214 -0.042674173 0.017919714 -0.027367914 0.0035414463 -0.045802105 0.0017174478 -0.0037833252
-0.051911447 -0.014313034 0.015203957 0.0010051249 0.0030497767 0.0043922067 -0.040340368 -7.932908e-06
0.0022328654 -0.0259677 -0.012360343 -0.009180329 0.030608049 0.038199082 -0.03577418 0.01458862
0.026878254 -0.0019014698 -0.024307828 0.009215024 -0.02105157 0.025452 0.041309066 0.045321662
-0.03633121 0.023385592 -0.012736615 0.016329052 -0.02980171 0.05265541 0.03486537 0.010986171
00000000: 9413 373d 3d83 7d3d 7a7b aebc 70eb 4c3b
00000010: 8c39 04bd 7b64 b63c 01fa 3b3d e6bc fd3c
00000020: d18e c83b fd36 c6bc 89d1 cbbc 9a44 373c
00000030: 0d19 7abc 40ff d9ba 90d7 8bbc b219 51ba
00000040: 4a18 4b3c 60f6 683d 0158 bbbc eb1f 103c
00000050: 505f 33bd ec09 543b a8f8 8cbc 12b0 3c3c
00000060: 1ff9 07bd 8cab d83c 96b5 493c efd7 e73c
00000070: cde0 de3b b97c 293d 4189 0bbd 63ac e53b
00000080: 4b09 e93c de22 073d 60eb 96bc d5a8 f43c
00000090: 949a 32bd fb5b 283c e0c7 2ebd cdeb c0ba
000000a0: cc4e 803c b9cd 34bd cf23 9a3c 92fd 6dbc
000000b0: 597a 333d ee1e 3dbc 5320 e8bc 043f 0b3d
000000c0: 25fc 543d d56c 173c 7b6b 14bc 6cd2 34bd
000000d0: 10ed 63bd 48ec 26ba 53d6 ccbc c056 5ebc
000000e0: 6f7c 153d 1c32 803a b4ac 14bd b888 463d
000000f0: d269 e43c 8ca1 403d 996b 63bc 11b4 003d
00000100: cc0f f73a 7829 8fbc 5dd5 83bc 5552 cdbc
00000110: ac03 173d c919 533d 0d5b d1bb f529 3b3d
00000120: 4cee 5c3d b95d 753d 8644 2c3d 159c fbbc
00000130: 5191 183d 32d2 993c 2c85 3cbd 668e 2a3d
00000140: a49f 513d 3c48 753c ba10 0b3c 270b 0bbb
00000150: a7ad 803c 4b7e a8bc 9232 01bd 6161 813c
00000160: f15b 9cbc a015 f93c 5dd2 a93c 07b9 3f3d
00000170: d931 133d 9d86 8d3c 78ab 693c 3bcc 38bc
00000180: d606 f2bc 623c dc3c 7425 30bb adee c43c
00000190: 26d4 b33c 50de db3b e199 53bd c306 98bc
000001a0: 4138 14bb c8c1 adbb 6b56 353a c0cd ac3c
000001b0: 1efc a6bb 38e5 773c c10d a4bb 1f95 6bbb
000001c0: c279 2fbd 3bc9 44bd 207f 063c 3b5c 8a3c
000001d0: acd4 fa3c f395 a0bc 6967 133d d0d7 15bd
000001e0: a1db b3bc 9666 323c 87c2 1a3c d6d3 21bd
000001f0: f702 47bd aa83 82bc 4037 4bbc 7777 83bc
00000200: 37b9 99bc e442 1ebd fe69 473b e9fc adbc
00000210: 7355 87bb 9a90 033d eca2 53bb 5d5b 78bc
00000220: 8ae3 a3bc 3994 c03c 3ba7 753d e876 7c3d
00000230: 726c 1d3d fb36 82ba a155 ab3c d53f 96ba
00000240: 4bc7 c23a e338 afba 66c2 0e3c ba9e 313d
00000250: d047 d73c b1cb 14bd 0ac1 503c f717 02bd
00000260: 3726 babb fb78 1c3d 8796 8cbd d556 0f3d
00000270: e5c6 503d 2f1b 5b3c 7f97 09bc e154 333d
00000280: e7c9 4e3d 3d83 9fbb 4461 5d3a 4836 ef3c
00000290: 09a6 a2bc ad46 52bc 1e83 05bd 9ed9 493c
000002a0: 3c42 02bd 6997 433d c252 7fbc 1bf6 2f3d
000002b0: cdab 2abb 038a 99bc b1b1 4c3c f30d a63c
000002c0: 6c05 e4bc 1d54 21bd 8e19 11bd 84d2 633b
000002d0: fa7a 133d 9f22 19bd f051 2f3d 8ee5 c3bc
000002e0: 3dc7 2c3c 5f89 0d3d 194d 87bb 6c41 903c
000002f0: 99e7 063d fb0f a03b a91d 5a3d ae52 90bc
00000300: d6e5 65ba 005d 0abd 5168 c23c ee1d 43bd
00000310: 742b fdbc 6514 50bc 2a7e 9e3b 0fde 963a
00000320: a811 01bd 0329 3fbd b6e0 693c 0ad4 b33c
00000330: 03a0 06bd 25f0 cabb f7f9 57bc 8b68 f33c
00000340: d82d 303d aed3 f8bc 9e51 18bd 334c c6bc
00000350: f4e1 273d 3bc4 23bd 22ef 2dbd 341d eb3c
00000360: 6e9d 3ebc 1dcb 2ebd 5dcc 923c ad32 e0bc
00000370: 9c17 683b fd9a 3bbd fc1b e13a aaf1 77bb
00000380: 19a1 54bd 3781 6abc 051a 793c 65be 833a
00000390: c3de 473b 80ec 8f3b f13b 25bd 9517 05b7
000003a0: 4455 123b 37ba d4bc 0983 4abc 1769 16bc
000003b0: bbbd fa3c a476 1c3d f287 12bd 1b05 6f3c
000003c0: c92f dc3c bd3a f9ba 3621 c7bc 9dfa 163c
000003d0: 5874 acbc b680 d03c b233 293d 35a3 393d
000003e0: 09d0 14bd 2493 bf3c 3cad 50bc 81c4 853c
000003f0: b722 f4bc 33ad 573d fdce 0e3d 57ff 333c

fc1.bias f4 [120]
-0.02160218 0.060408548 -0.0073312665 -0.04877701 0.031527784 -0.035714947 0.008560535 -0.042324383
-0.09394989 -0.07136963 -0.00369331 0.06246555 0.022615926 -0.017930496 -0.0257184 0.012010604
-0.045194406 0.026058136 -0.018187167 -0.0056042015 0.043248605 -0.052277505 0.026764918 -0.09200979
0.015487822 -0.062557854 -0.018197637 -0.005430064 0.016727928 -0.0056154574 0.047716405 0.04658849
-0.005464729 0.041832447 -0.028732017 -0.029891226 0.0006701588 0.03661422 -0.019744905 0.010400991
0.102834284 -0.02820363 0.016859226 -0.061073896 0.040070828 0.061672103 -0.014051602 0.07710577
-0.018835919 -0.085497424 0.0215366 0.01630568 -0.04204102 0.0589945 -0.029460153 -0.03285192
-0.07721309 0.007742618 -0.087445736 0.0527956 0.0024329557 -0.03969702 0.0954821 -0.07352172
-0.053916644 -0.017762627 -0.037706945 0.010079616 0.032345705 -0.0016469477 -0.019669078 0.060848445
0.048967537 0.028714517 0.038630027 -0.016165746 -0.015407789 0.054479856 0.034508295 0.035075877
0.009152316 -0.016177084 -0.09368491 -0.0660934 -0.0121840825 0.085243024 0.041678082 0.03182677
0.08265268 0.053491578 0.02675101 0.039893858 -0.010233333 -0.020112837 -0.021378031 0.064858064
-0.0278377 -0.046834815 0.04710355 -0.053693708 0.016655823 -0.037052926 -0.107639015 0.042333797
0.05680554 -0.07875394 0.015706262 -0.040259216 -0.06866851 0.04411449 -0.037664488 0.0370084
0.042457122 -0.060646538 0.04027105 -0.032262694 0.053152192 0.01779687 -0.05403683 -0.009454986
00000000: 0ef7 b0bc f46e 773d 1f3b f0bb 67ca 47bd
00000010: 4723 013d d649 12bd 7c41 0c3c 555c 2dbd
00000020: cd68 c0bd 3e2a 92bd 760b 72bb e0db 7f3d
00000030: 0945 b93c fae2 92bc 65af d2bc 20c8 443c
00000040: c51d 39bd df77 d53c 41fd 94bc 73a3 b7bb
00000050: 7325 313d f020 56bd 1a42 db3c a16f bcbd
00000060: a2c0 7d3c 551e 80bd 3613 95bc aeee b1bb
00000070: 0209 893c df01 b8bb 4772 433d 93d3 3e3d
00000080: 7811 b3bb 8058 2b3d 685f ebbc 72de f4bc
00000090: 99ad 2f3a cbf8 153d 11c0 a1bc eb68 2a3c
000000a0: c89a d23d 4d0b e7bc 5c1c 8a3c 9f28 7abd
000000b0: 4f21 243d e39b 7c3d b138 66bc a1e9 9d3d
000000c0: c94d 9abc 4619 afbd 866d b03c 7d93 853c
000000d0: 3433 2cbd 38a4 713d 6b56 f1bc bc8f 06bd
000000e0: e621 9ebd cab5 fd3b c016 b3bd 3340 583d
000000f0: 3972 1f3b 5899 22bd 1f8c c33d 8e92 96bd
00000100: b3d7 5cbd ee82 91bc 9972 1abd f924 253c
00000110: ee7c 043d 65de d7ba 0c21 a1bc 383c 793d
00000120: 2f92 483d b53a eb3c 853a 1e3d 076e 84bc
00000130: f370 7cbc 4526 5f3d 9258 0d3d b9ab 0f3d
00000140: 98f3 153c ce85 84bc e0dd bfbd fa5b 87bd
00000150: bf9f 47bc e593 ae3d a3b6 2a3d ca5c 023d
00000160: cf45 a93d fc19 5b3d ef24 db3c be67 233d
00000170: b6a9 27bc adc3 a4bc fb20 afbc 4ed4 843d
00000180: e30b e4bc ddd5 3fbd a7ef 403d efed 5bbd
00000190: cb71 883c cfc4 17bd d871 dcbd 3466 2d3d
000001a0: edac 683d bf49 a1bd 6baa 803c d9e6 24bd
000001b0: 13a2 8cbd 65b1 343d 1446 1abd 1f96 173d
000001c0: 85e7 2d3d 8168 78bd 42f3 243d e325 04bd
000001d0: 1db6 593d beca 913c b955 5dbd 16e9 1abc

fc2.weight f4 [84, 120]
-0.025629671 0.08363261 0.03666462 0.06681166 -0.055174325 -0.048708677 0.05555063 0.020471392
0.06127774 0.052031983 0.025373366 0.025253823 -0.03918506 0.06467021 0.07052094 0.05200987
0.05769464 0.07783069 -0.07589434 -0.051032975 0.08696086 0.028568177 -0.011491055 0.0036483926
-0.03653328 -0.06383737 0.1025761 -0.007293165 0.050234046 0.022166586 -0.067172 0.110697806
-0.083871655 0.06788884 0.027940491 0.09323787 -0.016366668 0.008612067 -0.009154402 -0.08929312
-0.013669019 -0.035736203 -0.046736643 -0.017190637 -0.051763672 0.008032154 0.017728997 -0.05117286
0.014637355 0.06922783 0.03188251 -0.048763346 0.05151309 -0.031085668 -0.050103765 -0.026829297
-0.008787189 0.012299064 -0.06826759 0.0051396596 -0.08256339 -0.021363426 -0.039886676 0.011467959
-0.08569025 -0.05141078 -0.043691706 -0.08550953 0.05112724 0.10055689 0.03455118 -0.081837006
-0.030764097 -0.021147905 -0.022366138 0.08010263 -0.037106883 0.042501125 -0.019764617 -0.09956201
0.003570127 -0.04431751 0.07477254 -0.037995875 -0.011567718 -0.03723961 -0.07958746 -0.0012010434
0.0014285473 -0.067348264 -0.06631797 0.091197275 0.052443974 0.0041398383 0.0082062045 -0.06713721
0.011878919 0.01869512 -0.07817005 -0.052397918 0.013274629 -0.08495911 0.046544608 -0.041012518
0.04479744 0.01845269 0.0037018096 0.061056193 0.05878034 -0.034566294 -0.0978551 0.098001406
-0.049995013 0.085492864 -0.047492784 -0.030231774 0.040359233 -0.0498633 -0.012923611 0.010992849
-0.04421279 -0.061541807 0.007973285 0.029753694 0.021239115 0.025291085 -0.059959214 0.08340232
-0.06274851 -0.073596165 -0.0068636406 0.03752154 -0.07842011 0.0800762 -0.08078817 -0.0076376675
-0.051020708 0.01842473 0.046765532 -0.102357306 0.032269258 -0.08470289 -0.08253733 0.10422811
-0.021698099 0.07048501 0.10074469 -0.06382096 -0.12267501 0.017350081 0.060554627 -0.1290885
-0.10884417 -0.0603341 0.10704957 0.013201319 -0.027202405 0.074554086 -0.047554124 0.02022983
-0.03630921 0.022152241 0.002284584 0.05098148 0.035019953 0.04453136 0.014991181 0.044955626
0.03068385 0.013152172 0.023856947 -0.09667365 0.058576997 -0.033945467 0.0030841385 -0.039472822
-0.03147308 0.014883075 0.029064966 0.03735094 -0.003444984 0.095924765 -0.101143494 -0.0656919
-0.082352 0.046762798 0.042042825 -0.01593248 -0.040758096 -0.073157735 0.07621723 -0.06752929
-0.023046793 0.007948934 -0.027593872 -0.033236813 -0.03156014 0.011257414 0.019633988 -0.009265168
-0.07770507 0.023844585 -0.08167748 -0.008047523 0.009742867 -0.014764811 0.0135370605 -0.068587184
-0.010963022 -0.02477224 -0.123319715 -0.08161368 -0.04253445 0.056320824 0.03377291 -0.045684908
0.038712572 -0.054683607 0.09870103 -0.0273274 -0.04296693 -0.008637708 -0.041399166 0.03337663
0.06267569 0.0041180463 -0.040200334 -0.08457202 0.0024779055 0.072651125 -0.06830705 0.042837523
-0.061211277 -0.10090484 0.0796893 -0.0950379 0.07508329 0.07718612 -0.010764548 0.063376375
0.083799824 0.055980623 -0.008767302 0.034844894 -0.004684724 0.03369252 0.048119105 -0.008336072
-0.00038059396 0.06626858 -0.04713725 -0.048626125 -0.077551395 -0.0592933 -0.068173155 0.02893948
00000000: 51f5 d1bc 9347 ab3d a42d 163d 8dd4 883d
00000010: 79fe 61bd c082 47bd 0f89 633d 9fb3 a73c
00000020: 5efe 7a3d 7d1f 553d cedb cf3c 1be1 ce3c
00000030: 8380 20bd d171 843d 486d 903d 4d08 553d
00000040: 3751 6c3d b265 9f3d 7e6e 9bbd f407 51bd
00000050: 8918 b23d cf07 ea3c fa44 3cbc df19 6f3b
00000060: eca3 15bd 2bbd 82bd 6b13 d23d 81fb eebb
00000070: 37c2 4d3d b396 b53c 7991 89bd 88b5 e23d
00000080: e7c4 abbd 4e09 8b3d 75e3 e43c 7ff3 be3d
00000090: 6413 86bc a119 0d3c 58fc 15bc 50df b6bd
000000a0: 05f4 5fbc 2060 12bd ec6e 3fbd 61d3 8cbc
000000b0: 2506 54bd 4c99 033c 673c 913c a29a 51bd
000000c0: 84d1 6f3c 52c7 8d3d 3c97 023d 13bc 47bd
000000d0: 64ff 523d 5fa7 febc 9b39 4dbd 1dc9 dbbc
000000e0: 24f8 0fbc 0382 493c e1cf 8bbd 976a a83b
000000f0: ff16 a9bd 5a02 afbc 3660 23bd 1be4 3b3c
00000100: 5f7e afbd 1c94 52bd 13f6 32bd 9f1f afbd
00000110: cc6a 513d c5f0 cd3d 8a85 0d3d 299a a7bd
00000120: fd04 fcbc 5f3e adbc 3139 b7bc d90c a43d
00000130: 63fd 17bd a915 2e3d 68e9 a1bc 2be7 cbbd
00000140: cbf8 693b 4786 35bd 5822 993d 90a1 1bbd
00000150: 8786 3dbc 9088 18bd c0fe a2bd 546c 9dba
00000160: 183e bb3a e3ed 89bd b7d1 87bd a3c5 ba3d
00000170: 7ecf 563d 7ba7 873b 5173 063c 3c7f 89bd
00000180: cc9f 423c 8226 993c 9f17 a0bd 339f 56bd
00000190: d47d 593c 0bff adbd 8fa5 3e3d befc 27bd
000001a0: 857d 373d 192a 973c 0f9a 723b 0f16 7a3d
000001b0: a7c3 703d 6395 0dbd 4168 c8bd f6b4 c83d
000001c0: 92c7 4cbd e216 af3d cb87 42bd a0a8 f7bc
000001d0: b94f 253d 763d 4cbd 8ebd 53bc 5a1b 343c
000001e0: 7818 35bd 4313 7cbd 62a2 023c 05be f33c
000001f0: a7fd ad3c 402f cf3c cb97 75bd d6ce aa3d
00000200: 4a82 80bd 96b9 96bd 64e8 e0bb 30b0 193d
00000210: b99a a0bd fefe a33d 4574 a5bd 6645 fabb
00000220: 17fb 50bd 76ef 963c 378d 3f3d b5a0 d1bd
00000230: c52c 043d b578 adbd 5509 a9bd 8c75 d53d
00000240: 36c0 b1bc 725a 903d 3b53 ce3d 90b4 82bd
00000250: 093d fbbd c221 8e3c 2108 783d c72f 04be
00000260: b1e9 debd e420 77bd ce3c db3d 584a 583c
00000270: 94d7 debc d0af 983d 1dc8 42bd 07b9 a53c
00000280: f7b8 14bd 9e78 b53c f6b8 153b f5d1 503d
00000290: 1571 0f3d 8466 363d 929d 753c 6423 383d
000002a0: b35c fb3c 357c 573c a56f c33c d6fc c5bd
000002b0: 6fee 6f3d 670a 0bbd 421f 4a3b 41ae 21bd
000002c0: ebe9 00bd 24d8 733c a719 ee3c 4dfd 183d
000002d0: 3ec5 61bb 3474 c43d 5224 cfbd 7a89 86bd
000002e0: 2aa8 a8bd 598a 3f3d 1935 2c3d d584 82bc
000002f0: f6f1 26bd b9d3 95bd c717 9c3d cc4c 8abd
00000300: a1cc bcbc 3f3c 023c 8b0c e2bc 5323 08bd
00000310: 3545 01bd 0471 383c 75d7 a03c eecc 17bc
00000320: d623 9fbd b855 c33c 8646 a7bd c2d9 03bc
00000330: 8ca0 1f3c 1be8 71bc 8cca 5d3c 7077 8cbd
00000340: 3f9e 33bc 27ef cabc 0c8f fcbd 1325 a7bd
00000350: 9a38 2ebd aab0 663d 7655 0a3d 1920 3bbd
00000360: 1391 1e3d ebfb 5fbd c423 ca3d b6dd dfbc
00000370: 17fe 2fbd 2c85 0dbc 2c92 29bd efb5 083d
00000380: 1d5c 803d adf0 863b 1ba9 24bd 1834 adbd
00000390: 5b64 223b 1dca 943d 91e4 8bbd 6676 2f3d
000003a0: adb8 7abd 32a7 cebd 2534 a33d 3ba3 c2bd
000003b0: 45c5 993d c213 9e3d c95d 30bc 79cb 813d
000003c0: 3e9f ab3d f04b 653d bba4 0fbc 85b9 0e3d
000003d0: 5082 99bb 2b01 0a3d 8a18 453d 0594 08bc
000003e0: 758a c7b9 d2b7 873d fd12 41bd 302c 47bd
000003f0: 44d3 9ebd 88dd 72bd 5e9e 8bbd 7d12 ed3c

fc2.bias f4 [84]
-0.085431255 -0.104072906 -0.011074037 0.10280009 0.13844517 0.007465303 0.08107849 0.030851308
-0.07223707 -0.05759569 0.007049334 0.010700881 -0.06133911 -0.02123633 -0.0794323 -0.099253275
0.08321519 0.1155981 -0.009348685 0.0172514 0.09847247 0.04325603 -0.038963813 -0.20637387
-0.06298563 -0.06447697 0.06974175 -0.05863262 0.14142838 0.11273147 0.13014029 -0.1049726
0.10065776 -0.15560932 0.014052447 -0.01334176 0.014235401 -0.1411387 -0.034755196 -0.015722666
-0.042593576 0.110614285 0.032622714 0.1252325 0.018455045 0.14505337 -0.090296954 -0.01643722
0.037568565 -0.06087396 -0.026695026 0.18177815 -0.15986891 -0.06420357 0.023673287 0.0043382696
0.106852315 0.03465905 -0.055517554 0.023961544 0.064454906 0.045654774 -0.015992831 0.085701786
0.02031278 0.040405434 0.018406756 -0.09255393 -0.00070731767 0.0641787 -0.1353288 0.03040707
-0.13106275 0.07119875 0.067218065 -0.0014160351 -0.029875858 -0.08617675 -0.111731924 0.12978515
-0.15766995 0.014997677 -0.057361502 -0.009814947
00000000: 95f6 aebd 2d24 d5bd e16f 35bc db88 d23d
00000010: 92c4 0d3e 809f f43b 7b0c a63d e2bb fc3c
00000020: 07f1 93bd 75e9 6bbd 19fe e63b bf52 2f3c
00000030: b83e 7bbd d0f7 adbc 67ad a2bd 4d45 cbbd
00000040: ba6c aa3d b2be ec3d 3a2b 19bc cf52 8d3c
00000050: efab c93d 3c2d 313d 8598 1fbd ac53 53be
00000060: 9cfe 80bd 800c 84bd c3d4 8e3d c228 70bd
00000070: 9ad2 103e c2df e63d 7f43 053e e0fb d6bd
00000080: a825 ce3d 0d58 1fbe 3c3c 663c 6697 5abc
00000090: 993b 693c aa86 10be 775b 0ebd d2cc 80bc
000000a0: 9a76 2ebd be89 e23d 659f 053d f33c 003e
000000b0: 092f 973c df88 143e 9ced b8bd 59a7 86bc
000000c0: 7fe1 193d f956 79bd 87af dabc 0d24 3a3e
000000d0: adb4 23be 297d 83bd 7bee c13c 0b28 8e3b
000000e0: 63d5 da3d a6f6 0d3d 6066 63bd 004b c43c
000000f0: ef00 843d 8000 3b3d 6603 83bc 6b84 af3d
00000100: fd66 a63c 2b80 253d c4c9 963c ea8c bdbd
00000110: 496b 39ba 1f70 833d a293 0abe 3f18 f93c
00000120: 5035 06be a6d0 913d a0a9 893d 419a b9ba
00000130: 37be f4bc 707d b0bd b5d3 e4bd 66e6 043e
00000140: 3b74 21be d1b8 753c e5f3 6abd dfce 20bc

fc3.weight f4 [10, 84]
-0.039558988 -0.17408569 0.1733805 -0.06454769 -0.073192336 -0.15658955 0.10222405 -0.06980254
0.112935774 -0.14183405 -0.18598789 0.025060022 0.07841902 -0.15288998 -0.024065401 0.073084
0.09266912 -0.10389226 -0.07229658 -0.058900353 0.031713266 0.09092675 -0.038528834 0.10287344
-0.07031449 -0.104209006 -0.09740603 0.07696929 -0.015404569 -0.15941739 -0.10583552 0.09050053
0.1500325 0.062237047 -0.00016564067 0.0112777 0.020312008 -0.087341495 -0.019127723 0.13745289
0.058942016 0.08538351 -0.0170143 -0.122171454 0.035348374 -0.005443391 0.018029103 0.0733387
-0.14720775 -0.037196796 0.006526789 0.10569164 -0.068781264 -0.020154774 -0.080009304 -0.042400155
0.08818683 -0.14868315 0.10068022 0.10015951 0.103114665 0.045502998 0.12339176 0.059758395
0.061680187 -0.14864913 -0.05601308 -0.16157606 -0.09182496 0.15422986 0.09821159 -0.06878602
0.009618362 -0.04184505 -0.0066683237 -0.14785989 0.045171745 0.10047159 0.0997099 -0.07850191
-0.077911906 0.05563507 -0.011182926 -0.02102945 0.03335625 -0.029916003 0.014375086 -0.118115015
0.027150271 0.031035047 0.111456074 0.10513763 0.11848532 0.013300243 -0.09926826 0.17070153
0.074040174 -0.023687148 0.07081106 0.0041787187 -0.09298467 -0.14766774 0.0448895 0.0013922576
-0.086968504 -0.094757445 -0.12123569 0.2044212 0.069717675 0.02557538 -0.22965844 -0.12059862
-0.13083476 0.008249728 -0.08936419 0.021156939 0.044952 0.26950085 -0.18856317 0.05583885
0.00071599334 0.19516027 0.048539825 0.0043128966 0.11722875 -0.0032016695 0.02969117 0.014862881
0.07240048 -0.10541772 0.12457024 0.008651335 -0.057518147 -0.020609822 -0.009634795 -0.061073937
0.154935 -0.055623095 -0.08874829 0.04241552 -0.016090924 -0.1922975 -0.112366624 0.14179513
0.019746976 -0.09232056 -0.04319736 -0.07723854 -0.022965582 -0.025509391 -0.014642097 -0.0016960937
-0.113783374 -0.10401251 0.08572296 0.031235833 0.13399607 -0.012958544 -0.06821787 0.18943153
-0.10436182 -0.020930246 0.127876 -0.06509157 0.17215185 -0.039018165 0.1295819 -0.15820317
-0.10460218 0.04919475 0.030869016 0.011995607 0.19432966 -0.00041281644 -0.09037556 0.04211963
-0.067692734 0.0021654884 0.20686999 -0.02827107 0.04753644 0.07399709 0.113891706 -0.039384022
-0.0073869973 -0.034607116 -0.1028501 -0.11444396 0.09232571 -0.035365082 0.01273338 -0.012807948
-0.07381748 -0.010425258 0.068177916 0.03811645 -0.10322498 0.055602863 -0.08936236 0.055844016
0.032210387 -0.17286326 0.071890816 0.0077284267 0.017440764 -0.12381113 -0.110356234 0.057926286
0.07002146 0.14708251 -0.050487265 -0.07837739 -0.07046382 0.16293356 -0.07131535 -0.02530834
0.053258304 0.07782121 -0.13715239 0.008686218 -0.11518227 -0.05234462 -0.047033273 -0.05126007
0.006538431 0.14421777 0.08023063 -0.004451166 0.06719868 -0.08123036 -0.023719463 0.046049774
-0.01955102 0.028766941 -0.029969802 -0.048529383 0.005602985 -0.104233414 -0.078065 0.13593599
-0.010009031 -0.044881605 0.007769398 -0.07776157 -0.04460552 -0.053483143 -0.1469386 0.05296187
-0.13928062 -0.044987794 -0.119988546 -0.08487043 0.09275019 0.0973671 -0.018437687 0.10053375
00000000: 9b08 22bd 8543 32be a88a 313e 9431 84bd
00000010: dde5 95bd 0359 20be d85a d13d a2f4 8ebd
00000020: df4a e73d f23c 11be 9c73 3ebe ad4a cd3c
00000030: 279a a03d 318f 1cbe ce24 c5bc 10ad 953d
00000040: 4fc9 bd3d 77c5 d4bd 3b10 94bd 7f41 71bd
00000050: c5e5 013d ce37 ba3d 69d0 1dbd 4faf d23d
00000060: 0b01 90bd 886b d5bd d07c c7bd 13a2 9d3d
00000070: 7263 7cbc 503e 23be 4bc0 d8bd 5858 b93d
00000080: 1fa2 193e 46ec 7e3d d4af 2db9 1ac6 383c
00000090: 5e65 a63c 19e0 b2bd beb1 9cbc 73c0 0c3e
000000a0: 2f6d 713d 8ddd ae3d 9361 8bbc 0735 fabd
000000b0: 75c9 103d 795e b2bb c5b1 933c 9a32 963d
000000c0: a1bd 16be ab5b 18bd adde d53b dc74 d83d
000000d0: 31dd 8cbd a01b a5bc ebdb a3bd c9ab 2dbd
000000e0: 4c9b b43d 6540 18be 6e31 ce3d 6e20 cd3d
000000f0: c82d d33d 5a61 3a3d d2b4 fc3d 38c5 743d
00000100: 5da4 7c3d 7a37 18be f96d 65bd 3274 25be
00000110: ba0e bcbd 6fee 1d3e 2823 c93d afdf 8cbd
00000120: 5696 1d3c b765 2bbd f481 dabb 9568 17be
00000130: 0206 393d 0dc4 cd3d b434 cc3d 9cc5 a0bd
00000140: 4790 9fbd 99e1 633d 9738 37bc f445 acbc
00000150: 90a0 083d 6812 f5bc 7b85 6b3c 49e6 f1bd
00000160: 3f6a de3c 363d fe3c 1543 e43d 6652 d73d
00000170: 6ea8 f23d 43e9 593c 284d cbbd 62cc 2e3e
00000180: 60a2 973d 8d0b c2bc 6405 913d a2ed 883b
00000190: bf6e bebd 3636 17be 0dde 373d 6a7c b63a
000001a0: 8b1c b2bd 3110 c2bd 6b4a f8bd cb53 513e
000001b0: 24c8 8e3d 7683 d13c 952b 6bbe 69fc f6bd
000001c0: 8cf9 05be de29 073c 9304 b7bd 5151 ad3c
000001d0: 971f 383d 04fc 893e b416 41be 47b7 643d
000001e0: 80b1 3b3a 18d8 473e b2d1 463d 3353 8d3b
000001f0: a015 f03d 1ad3 51bb e63a f33c 7183 733c
00000200: b446 943d 3fe5 d7bd af1e ff3d 54be 0d3c
00000210: 2698 6bbd eed5 a8bc 42db 1dbc aa28 7abd
00000220: 48a7 1e3e 0bd5 63bd aac1 b5bd e5bb 2d3d
00000230: 1dd1 83bc a3e9 44be 7920 e6bd be32 113e
00000240: 69c4 a13c 9012 bdbd b7ef 30bd 3d2f 9ebd
00000250: 5122 bcbc 12f9 d0bc 68e5 6fbc 764f deba
00000260: 4207 e9bd 8304 d5bd 858f af3d 4ae2 ff3c
00000270: 4436 093e 1350 54bc d0b5 8bbd 57fa 413e
00000280: a6bb d5bd e875 abbc edf1 023e bb4e 85bd
00000290: 9348 303e 83d1 1fbd 1eb1 043e 0300 22be
000002a0: ab39 d6bd 6f80 493d 05e1 fc3c 3989 443c
000002b0: 5bfe 463e 496f d8b9 d216 b9bd a285 2c3d
000002c0: 7da2 8abd deea 0d3b bad5 533e bb98 e7bc
000002d0: 92b5 423d c98b 973d 0e40 e93d 2451 21bd
000002e0: a00e f2bb 31c0 0dbd 13a3 d2bd 9861 eabd
000002f0: 4315 bd3d fada 10bd ab9f 503c 6dd8 51bc
00000300: 9e2d 97bd b4ce 2abc dda0 8b3d ff1f 1c3d
00000310: 9e67 d3bd d4bf 633d 9d03 b7bd b2bc 643d
00000320: 0aef 033d 1103 31be 7e3b 933d be3e fd3b
00000330: efdf 8e3c b190 fdbd 7302 e2bd 1d44 6d3d
00000340: 6967 8f3d cc9c 163e bccb 4ebd 5384 a0bd
00000350: 564f 90bd 0ed8 263e c80d 92bd 7053 cfbc
00000360: 6125 5a3d ba60 9f3d ad71 0cbe a450 0e3c
00000370: afe4 ebbd 5067 56bd f6a5 40bd 14f6 51bd
00000380: 5640 d63b d3ad 133e f54f a43d 16db 91bb
00000390: 769f 893d 1a5c a6bd 524f c2bc b09e 3c3d
000003a0: 7629 a0bc a6a8 eb3c 3b83 f5bc bfc6 46bd
000003b0: 3f99 b73b 5478 d5bd 8be0 9fbd ce32 0b3e
000003c0: ebfc 23bc c6d5 37bd 6f96 fe3b 7541 9fbd
000003d0: 47b4 36bd 2411 5bbd 1377 16be 8cee 583d
000003e0: 949f 0ebe 1f45 38bd 8ebc f5bd 8cd0 adbd
000003f0: d0f3 bd3d 6768 c73d a20a 97bc a4e4 cd3d

fc3.bias f4 [10]
-0.11288369 -0.4569646 0.24182022 0.29453194 0.27486378 -0.029968562 0.22905265 -0.23439237
0.036116123 -0.20526539
00000000: 902f e7bd 44f7 e9be b89f 773e e4cc 963e
00000010: f2ba 8c3e a180 f5bc c78c 6a3e 8e04 70be
00000020: 80ee 133d 1731 52be
